models/photon_count_model_03.pth (torch, 11860 bytes, 6 tensors)

network.0.weight f4 [32, 50]
00000000: 04c0 61bd 14af 06bd 20d3 323d 5269 dcbd
00000010: c895 69bd b06f 6ebd 2fdc e4bd 5aeb 9a3d
00000020: acc4 0ebe deba f73d b4b8 453d 50da 563c
00000030: 8e2d 07be 404d 2cbd f61b 9e3d e3a9 a9bd
00000040: 240d dfbc 2cd3 72bd c000 623d 34a9 6dbd
00000050: 8648 eb3d cc70 a7bd 7c12 b73d 78b3 77bd
00000060: 9847 773d a2e0 6cbd 9a78 e43d 90b8 aebd
00000070: b4c0 04bd c09c 5a3d 8ca5 cc3d aa38 b03d
00000080: 1c58 233d 8a82 68bd 00c8 023a 3e69 b93d
00000090: b0cb a53c 093d 0b3e b08d c5bc f645 38bd
000000a0: c3c2 05be 1cca a43d cefd f93d 701c 7abc
000000b0: 1c49 a9bd d0f9 b63d 288b 043d 12cf ec3d
000000c0: 8421 be3d ecd1 42bd 6134 c9bd b281 bbba
000000d0: 3c26 f13d 8430 9d3d a750 ddbd c32a 92bc
000000e0: c052 42bc 0a50 df3d 9a3f 5f3c 3a47 b93d
000000f0: 1547 a1bc ca19 093e 0d4f f3bd 243a c9bd
00000100: d6b0 b03d f131 50bc 3b93 043e 6fac 0bbe
00000110: 5b89 ec3d 470e f5bd 6d45 f13d 5a0d 0a3e
00000120: b455 a43d 21d0 f1bd 26e1 9b3d 580a 16bc
00000130: 43ac e8bb b3e2 d3bd 8a0c d53d 9d11 003e
00000140: f286 54bc 82cd 413c c518 f33c c370 f63d
00000150: 38d4 553d 1393 533b 146e 233c 3a5b e73d
00000160: 0829 fcbd 1932 e03d 56c3 d8bc 8be0 07bd
00000170: a481 f5bd 0a1f 83bd c6cf 88bd 9ae4 fd3d
00000180: 2bd2 2bbd c821 eabd 4e64 f4bd 12df c7bd
00000190: 50ca 10bd c9c0 f7bd 14af 9abc 444e c13d
000001a0: 00c1 32bc 6168 ebbd a517 0f3e a8e6 a83c
000001b0: 3798 a1bd dc7d db3d ae65 d83d c0b8 2d3c
000001c0: 2fa0 8ebd de08 08bd 4a48 d53d 88e5 49bd
000001d0: 5af4 f43d f464 a43d 0ccf 1d3d 02b4 09be
000001e0: 3849 333d 266b 3cbd ee65 ee3d 3832 df3c
000001f0: 3e03 ef3d ac1c 1d3d 904e 073d e008 2cbd
00000200: 9e3a f83d a238 cabd 009f 7dbb c0cb 87bb
00000210: f6f9 a63d 6882 183d 695b 9bbd 1243 00bd
00000220: fa5b b43d fe72 14bd e453 0abd e083 573d
00000230: 2012 a6bb d8e1 e63c 189a db3d 5023 c53c
00000240: 5039 6abc 66e4 52bd ed80 a9bd 0c44 debd
00000250: cc89 6a3d e9e3 acbd 6545 503e 53ad c23c
00000260: e85e 7a3e 86cc 16be ff28 1dbc f9bb a4bd
00000270: 2bf2 533e 87ad a13d 34e7 babd e513 4d3e
00000280: 11ae 553c 7000 3cbd c942 61be 58ef 5ebe
00000290: eb1b 7cbf 9717 7ebe 5e7c c0bd 2c61 323f
000002a0: ebc6 5f3f caca 953f 297a 80bd 688a 8abf
000002b0: a258 8d3d a708 8dbe 1aae 58bf d349 42c0
000002c0: 66fc 953d 25be 3b3f db6c 8f40 3d67 5b40
000002d0: 59d3 6540 948a 2140 5604 553e 0a3d f1bc
000002e0: 4a99 f33f 7954 503f 747a c13f 2875 ae3f
000002f0: 89c9 d3bf 6b15 53be 2b49 1dc0 f124 99bf
00000300: 3c59 66bf 2a0d e7bf 1479 00bf 143f a9bf
00000310: 6556 0bc0 d364 2fbf a0c7 40c0 98fe b5bf
00000320: 8281 6f3d 076d 30bd e3a7 9a3d f6b4 093d
00000330: 2f0d ca3c 765b 92bc 707d bfbd 1255 8fbd
00000340: 2ce4 673e 66f1 153e d0cf 3bbd ee05 07be
00000350: 8f91 02be fc32 0b3e 20b5 a63d 6b2e f6be
00000360: 7484 c4be 14e0 5c3e b612 35bd a5ee 3ebf
00000370: 461d 35bf aa27 b83c a0ba df3e 42c6 0e3f
00000380: cd53 e93e 95d7 683e 4419 a43e 0391 25bf
00000390: b621 87be 6bf4 923f 51cd 163f 542a 2cc0
000003a0: 5155 85bf 229e da3f 71a2 0940 b6a2 0640
000003b0: 1552 bf3f e5d6 603f a36b d93e 1d76 1d40
000003c0: b07e 0e40 0510 5640 4f1a 873f 0391 cf3f
000003d0: ea14 923f 3871 95c0 0bf1 d7bf caee 66bf
000003e0: cbd2 b43d 79cc e53f 5f80 c3bd 1441 af3c
000003f0: 02e5 7fbd ebad 6d3e eb7d 4c3e fb71 63bd
-0.05511476 -0.03288181 0.043658376 -0.10762276 -0.05702761 -0.058211982 -0.11174809 0.07564421
-0.13942212 0.12096189 0.04827185 0.013113573 -0.13200971 -0.04206586 0.07720177 -0.082843564
-0.027227946 -0.05928342 0.055176497 -0.058022693 0.11488442 -0.08175811 0.089390725 -0.06047389
0.06037101 -0.057831414 0.111558154 -0.08531296 -0.03241034 0.053372145 0.09992513 0.08604558
0.03987895 -0.056765117 0.0004988909 0.090532765 0.020238727 0.13597502 -0.024115413 -0.044988595
-0.13062577 0.08046362 0.122066125 -0.015265569 -0.08265898 0.08934367 0.032359272 0.11562933
0.09283736 -0.04756348 -0.098244436 -0.001430562 0.11774871 0.07675269 -0.10806399 -0.017842656
-0.011860549 0.10903938 0.013626004 0.090467885 -0.019687215 0.13388744 -0.11880312 -0.098255426
0.08627479 -0.012707219 0.12946789 -0.13639997 0.11549636 -0.11965614 0.1178082 0.13481656
0.08024159 -0.118072756 0.07611303 -0.00915774 -0.0071006133 -0.10345974 0.10402782 0.12506719
-0.012971627 0.011828782 0.029674897 0.12033226 0.05220434 0.0032283708 0.009974975 0.11296697
-0.123125136 0.10947055 -0.026460331 -0.033173125 -0.119876176 -0.064024046 -0.06680255 0.12397118
-0.04194848 -0.114322245 -0.11933194 -0.09759344 -0.03534919 -0.12097318 -0.018882312 0.09438756
-0.010910273 -0.11494518 0.13973863 0.020617798 -0.07890361 0.10717365 0.10566269 0.01060313
-0.06964146 -0.03321158 0.10414179 -0.049291164 0.11960669 0.08027068 0.038527533 -0.13447574
0.043771 -0.046000622 0.11640535 0.027245626 0.1167054 0.03835742 0.033033907 -0.04200065
0.12120555 -0.09874083 -0.0038699508 -0.004144162 0.08153145 0.03723374 -0.075857945 -0.031313963
0.08806606 -0.036242478 -0.03377141 0.052616 -0.0050680786 0.028183863 0.107227504 0.02406469
-0.014295891 -0.05148735 -0.08276544 -0.10852823 0.05726032 -0.08441908 0.20338972 0.023764288
0.24450266 -0.14726457 -0.009592294 -0.080436654 0.20697848 0.07894426 -0.0912613 0.2002712
0.013041989 -0.045898855 -0.21998133 -0.2177099 -0.984801 -0.24813686 -0.09398721 0.6967952
0.874129 1.1702511 -0.062733 -1.0823488 0.06901671 -0.27545664 -0.8464066 -3.0357559
0.07323532 0.7333701 4.482038 3.4281762 3.5910246 2.5240831 0.20802435 -0.029448051
1.9031155 0.81378895 1.5115495 1.3629503 -1.6545879 -0.20613639 -2.4575908 -1.1964399
-0.8997991 -1.8050892 -0.5018475 -1.3222375 -2.177148 -0.6851322 -3.0121841 -1.4218321
0.058473118 -0.043072727 0.07551553 0.033619843 0.02466449 -0.017865878 -0.09350097 -0.06998648
0.22645634 0.14642867 -0.045852482 -0.13185856 -0.12750839 0.13593668 0.081400156 -0.4808229
-0.38382304 0.21569854 -0.044207297 -0.7458289 -0.7074779 0.02247985 0.4369707 0.5577127
0.45571747 0.22738488 0.32050526 -0.64674395 -0.26392907 1.148084 0.5890704 -2.6900835
-1.0416662 1.7079508 2.1505396 2.103681 1.4946924 0.87827903 0.42464933 2.460334
2.2264824 3.3447278 1.0554904 1.6216129 1.1412632 -4.6700706 -1.6870435 -0.90208113
0.08829268 1.7953025 -0.09545969 0.021393336 -0.06247426 0.23210876 0.19969909 -0.055528622

network.0.bias f4 [32]
00000000: 721e fcbd b336 77bd bce8 09be af6d c23b
00000010: ec01 4e3d e9b2 89bd 34b0 0b3e cc52 023f
00000020: 983a 1b3f fe20 bfbd 189d be3d 9258 dcbd
00000030: bacf 48bd 5717 433f 0c5b 793d 86dd 1fbd
00000040: 21b1 c6be b7f7 3dbb c120 e73c 838a ff3d
00000050: f505 afbd 3f1e 9abd 6830 bbbd 686d 423e
00000060: 26aa 59bc 4f4e 0cbd 27ba 293e bafb 1cbe
00000070: 5542 35bd 8bfe edbd b4ea 253e 86b8 9dbd
-0.123104945 -0.0603549 -0.13467687 0.0059334855 0.0502948 -0.067235775 0.13641435 0.5090759
0.6063628 -0.09332465 0.09307307 -0.10759081 -0.04902623 0.7620749 0.060877845 -0.03902962
-0.38807014 -0.002898676 0.02821386 0.12477591 -0.08546058 -0.075253 -0.09140092 0.18987048
-0.013285195 -0.03425437 0.16574918 -0.15330401 -0.044252712 -0.11620816 0.16202813 -0.07701211

network.2.weight f4 [16, 32]
00000000: 72cd c83d 3ac6 ac3d 4c25 1bbe 761d c33f
00000010: 6ee1 cb3f f222 fe3f 9024 a43e 67e8 8d3f
00000020: 3a6a 5cbd b969 33be b887 aa3f d872 8dbc
00000030: adf5 ec3f 69b3 51bf 7a73 a23f 330a ea3f
00000040: a6ca da3f 5b66 8a3f 5f7c 8b3f 4209 563e
00000050: 0265 c73f 4d2d e83f 7865 f93f 2332 56bd
00000060: dca7 eb3f b690 0140 93d6 123f 1be1 0440
00000070: ef0c ee3f 9e09 ff3d ce4e 093f d0e3 e3bd
00000080: a572 093e b13c 27be d488 023d 77c3 913c
00000090: 4733 12be ad48 f93c 7854 2bbe dffc 173e
000000a0: 4698 c4bd 5481 723d 581d 283e aaa8 b93d
000000b0: 3860 1d3e d377 06be 34cf e3bd 97be 25be
000000c0: 0eb4 19be 35f7 16be 9fde ad3d a805 0ebe
000000d0: 350a ac3d 93fa 83bd 34ee 083d ef76 ddbd
000000e0: 64b5 ae3d 6d63 bbbd d9e5 a13c 46ee 903d
000000f0: 1d18 a4bd b8d6 803d 89b3 2c3e 2a2c e83d
00000100: 44aa 07be 8de6 72bd 7487 2d3d 3d03 da3e
00000110: 5e57 823f f937 f2bc 04d7 a63e e87e 8d3f
00000120: d7f6 4f3f 328b e83d 8408 993f 920a cd3d
00000130: 957f 33bf 8327 3d40 f6f4 333f 4e9a ce3d
00000140: 5eea 4c3f 1f4b 5fbe ef3d c83f 5b73 403f
00000150: 09b4 dc3e c982 16bf b511 30bf 5d87 283f
00000160: e987 b2bf 79b0 fbbf f0d5 0240 a2c1 28bf
00000170: 41ba 84be 26ea ce3d 7e1e bb3e f28b ba3d
00000180: 99c0 b3bd b028 db3d f420 15be 0ad0 823f
00000190: 7e00 0d3f 2dab 0c3f 07c0 38bd 6115 4c3f
000001a0: 9dff a93e 747e 00bd e0ca ee3e 8aa5 ee3d
000001b0: 4b5d d53e b64c 2ebc 5b0c 463e ca37 823f
000001c0: 3ea2 563f fe0b 623e 5243 843e 6a95 573e
000001d0: f0f2 e53e 050b 413f 3e89 d43e 613f 37bd
000001e0: 54c5 e93e c42b dc3e 8450 77bd 44ee 3a3f
000001f0: 6095 243f fd41 283e 61d8 583e 5c5e aebd
00000200: 08eb f7bd 8f8e 72bd a4ad 4abd 7eeb 0440
00000210: a853 e53f f335 ab3f 55a5 3e3f 4bcf 513f
00000220: 9744 293e b819 85bc 10a7 9d3f 3638 923d
00000230: 39bb 84be e57a c73f a8dc b0be 7915 0740
00000240: 695e 01be 1cb7 0ebf 5de4 953f aba7 ed3e
00000250: 3e25 563f 2187 51be 7d71 0bbf 47e2 1b3f
00000260: fcc5 53bf 3381 adbf 57b3 de3f 3348 03bf
00000270: 780c a3bd 2ccf c8bd be45 193f d627 f43d
00000280: 9d31 1c3e d6d4 20bd cb11 88bd ef16 7abf
00000290: 36c5 f1bf de77 dfbf 4dbf 943c 4a71 633e
000002a0: 95d0 463f 7e87 16be d142 00c0 ed19 c9bd
000002b0: 04a7 3dbf e821 493f 1c0c 90bf 9140 d8bf
000002c0: 807f afbf 6e35 f8be c379 d1bf ab56 83be
000002d0: e83b 6cbf 91d6 bdbe 1f76 29bf 15e5 c03e
000002e0: 5dd6 03bf d00f 9fbf 6e85 b3bf 22bb b7bf
000002f0: afc0 58bf f854 e8bc 7585 003f 22b9 fe3d
00000300: e283 d73d ae37 8b3d ac4e 0bbe 121c 0c3f
00000310: c40e 2b3e 6635 093f ba59 363e 4837 1e3f
00000320: 6072 543b 4301 313e 9a62 3b3e 4119 343e
00000330: 6304 3d3e bbc5 6dbe 4670 b03e e580 123f
00000340: 3bee e93e f2b1 463e 1643 993e 6ce9 acbc
00000350: 723f 053f cd2b ea3e d831 783e afc0 573e
00000360: 8f00 ba3e ec32 913e a87b 303e b550 363f
00000370: f148 103f 2d40 94bd 58d3 ab3e 898f 003e
00000380: 094a d9bd e9f3 8bbd f086 10be 6ff8 123f
00000390: e50e 6b3f 71b5 613e bb91 443e 59ce ab3f
000003a0: 79cd f23f 45ec 013e 476a 5a3f 017c 003e
000003b0: b40c 20bf 82fb 1b40 2e98 a63e 817c 453e
000003c0: 09d9 c9bd cce0 9e3e 5460 cf3f 310b bc3f
000003d0: ce99 1d3d c631 f5be a897 4cbf fb82 803f
000003e0: f157 c0bf 03a4 0dc0 e45c f73f 7d9f 35bf
000003f0: 8457 99be 78a4 d43c bf11 9a3e 2020 ebbb
0.098048106 0.08436246 -0.15150946 1.5243366 1.5928171 1.9854414 0.32059145 1.1086549
-0.053812243 -0.17520799 1.3322668 -0.017266676 1.8512474 -0.81914383 1.2691491 1.8284363
1.7093093 1.0812486 1.089733 0.20901969 1.55777 1.8138825 1.9484091 -0.052293908
1.8410602 2.0244575 0.57358664 2.0762393 1.8597697 0.12453006 0.5363587 -0.11127436
0.1342264 -0.16331746 0.03186877 0.0177934 -0.14277373 0.030430162 -0.16731441 0.14842556
-0.09599356 0.05920537 0.16417444 0.09065373 0.15368736 -0.13131647 -0.11123505 -0.16185986
-0.15010092 -0.1474274 0.08489727 -0.13869345 0.08400384 -0.064442776 0.033430293 -0.108137004
0.08530691 -0.09149823 0.01976292 0.07076697 -0.08012412 0.06290954 0.16865362 0.113365486
-0.13248545 -0.0593019 0.042365506 0.42580596 1.0182912 -0.029567705 0.3258592 1.1054354
0.8123602 0.113546744 1.1955724 0.10011782 -0.7011655 2.9555366 0.70295656 0.10088025
0.80045116 -0.21806 1.5643901 0.7517602 0.43106106 -0.5879331 -0.6877702 0.6583155
-1.3947726 -1.966323 2.0443077 -0.6592046 -0.2592335 0.10103254 0.365467 0.09108724
-0.087769695 0.1070112 -0.14563352 1.0219738 0.55078876 0.54948694 -0.045105007 0.7972012
0.3320283 -0.031370595 0.46639156 0.11652668 0.4167274 -0.0106384065 0.1934065 1.0173275
0.8384131 0.22074887 0.2583261 0.2105309 0.4491191 0.7540744 0.41510957 -0.044738177
0.45658362 0.4300214 -0.06037952 0.73019814 0.6429043 0.16431423 0.21176292 -0.08514091
-0.121053755 -0.059217986 -0.049482003 2.0768733 1.7916155 1.3375839 0.74471027 0.8195693
0.16530071 -0.016247615 1.2316608 0.07139628 -0.2592409 1.558438 -0.34543347 2.1106856
-0.12633671 -0.5574815 1.1710316 0.46416983 0.8365058 -0.20461704 -0.54470044 0.60892147
-0.82723975 -1.3555053 1.739848 -0.5128204 -0.079613626 -0.0980514 0.59872043 0.119216606
0.15253301 -0.039265476 -0.06644019 -0.97691244 -1.8888309 -1.7458456 0.018157626 0.22211185
0.7766202 -0.14700124 -2.0040781 -0.09819398 -0.7408297 0.7856736 -1.1253695 -1.6894704
-1.3710785 -0.48478264 -1.6365284 -0.2565206 -0.9227891 -0.37077764 -0.66195863 0.37674776
-0.5149897 -1.24267 -1.4025095 -1.4353983 -0.8466901 -0.028360829 0.5020364 0.12437655
0.105232015 0.067977294 -0.1360423 0.5473033 0.16704851 0.53597105 0.17807665 0.618031
0.0032416806 0.17285638 0.18299332 0.17587759 0.18458705 -0.2321996 0.34460658 0.5722793
0.45689568 0.19403818 0.29933995 -0.021107398 0.52049935 0.45736542 0.24237764 0.21069597
0.3632855 0.28359163 0.17234671 0.712169 0.563613 -0.07238803 0.3355968 0.12554754
-0.10609824 -0.068336315 -0.14113975 0.5741033 0.918196 0.2204187 0.19196217 1.3422347
1.8968955 0.12687786 0.85318416 0.12547304 -0.62519383 2.4372258 0.3253798 0.19285776
-0.09855849 0.3103088 1.6201272 1.4690915 0.038476758 -0.47889537 -0.7991891 1.0039972
-1.5026838 -2.2131355 1.9325223 -0.70946485 -0.29949582 0.025957331 0.30091664 -0.0071754605

network.2.bias f4 [16]
00000000: bdea 17bf a694 24be 4917 23c0 1c11 4bbd
00000010: e44b a1bf a9a8 5f40 9a40 afbd 4b17 78c0
00000020: 8672 9ebf 61aa 2cbe a1d1 2240 cc68 a6bf
00000030: 66b3 e33f 77a3 d03f 6d65 1740 d8be 29c0
-0.5934256 -0.1607233 -2.5482962 -0.049576864 -1.2601285 3.4946692 -0.08557244 -3.8764217
-1.23787 -0.1686187 2.5440447 -1.3000731 1.7789123 1.6299886 2.3655655 -2.6522732

network.4.weight f4 [5, 16]
00000000: a882 b9c0 8678 533e 29b9 d0bd 319d f8bf
00000010: d8ca 9ebe 7ce3 9a3f 0f73 afbf 729f 543f
00000020: 705f aac0 a43e 5c3e b25f 4040 4432 79be
00000030: 8d1f 5140 79e7 4d3f cb61 16c0 1fff d3bf
00000040: c2f0 71bf c888 383e 6495 65c0 ae7a 44bf
00000050: cdaf 38c0 d3ad b13f 8fa0 31bf e65e f9be
00000060: b1a1 fabf dcef aa3d 6c7e a73f b92d 253e
00000070: 0245 97be 9c25 713f 26c7 bc3f ce0e f5bf
00000080: 5b30 7f3f 6f89 4a3e 7af9 1340 2d63 bcbc
00000090: 3420 8840 93c7 a33f 2a46 e13e a20e 73c0
000000a0: 014c 6b3e 912d 933c 80de fdbf f061 0abf
000000b0: 8a34 ecc0 ef81 cf3f 5b59 2340 ded2 6bc0
000000c0: c14c 1e40 9b5b 383e 118d 5940 d7e7 d13f
000000d0: c124 653e bbe8 913d ba2f 573f 4160 dfbf
000000e0: b019 4e40 578c 193e 63d1 a8c0 15a0 23c0
000000f0: 659d 0940 c0f8 2fbf 3d12 d2bd 4030 0840
00000100: 125f 6840 28f7 f3bc 787f 11c0 cfcb 743f
00000110: c321 bebf b3d1 89c0 03bf 563f 64f1 a640
00000120: 0398 8440 18e2 7dbe b7f6 3540 e268 4040
00000130: 5968 0a40 6c16 2dc0 6054 9dbf 72d6 a740
-5.7971992 0.20651445 -0.101915665 -1.9422971 -0.31014132 1.2100673 -1.3706988 0.83055794
-5.32415 0.2150827 3.0058408 -0.24335581 3.2675507 0.80431324 -2.3497188 -1.6562232
-0.9450799 0.18020928 -3.587243 -0.76749694 -2.88573 1.3881172 -0.6938562 -0.48705214
-1.9580594 0.08346531 1.3085456 0.16130723 -0.29544836 0.9419801 1.4748275 -1.9145143
0.9968316 0.1977899 2.3121018 -0.02299651 4.253931 1.279528 0.43998843 -3.797768
0.22978212 0.017966064 -1.9833527 -0.5405569 -7.3814135 1.6211528 2.5523288 -3.6847453
2.4734347 0.18003695 3.399235 1.6398877 0.22377302 0.07124468 0.840572 -1.7451249
3.2203178 0.14994942 -5.27556 -2.5566456 2.1502316 -0.6873894 -0.10257385 2.127945
3.6308026 -0.02978094 -2.273405 0.9562349 -1.4854053 -4.306848 0.8388521 5.2169666
4.143556 -0.24793279 2.8431833 3.0064015 2.1626189 -2.7044935 -1.2291374 5.2449274

network.4.bias f4 [5]
00000000: 79f9 85bf 075a 963f 01ff 863f 5f09 303f
00000010: c6df 01c0
-1.0466758 1.1746224 1.0546571 0.687643 -2.029283
