models/photon_count_model_rms002_02.pth (torch, 11994 bytes, 6 tensors)

network.0.weight f4 [32, 50]
0.01796601 0.003997468 -0.081623286 -0.02373121 0.07438524 -0.055477776 -0.033049785 -0.086218774
0.0014215201 0.0535635 -0.07847184 0.022376204 0.057078704 -0.06882676 0.0013859256 0.011104002
-0.002286728 0.07060037 -0.07589525 -0.00584674 -0.09395098 -0.076814 -0.06932553 0.079922535
-0.13084514 -0.072218515 -0.15378995 -0.15842307 -0.11618193 0.05333701 -0.14805323 -0.029119276
-0.05441522 -0.009515736 -0.0658966 -0.030785998 -0.058650028 -0.0068258517 0.029825566 0.011996008
0.0918079 0.077854976 0.03166621 0.06384555 0.045777198 0.03014437 0.028366802 -0.03718768
-0.03769462 0.041069485 0.051350296 0.12762369 -0.018413164 -0.02599734 0.09694956 0.0045672655
0.13276954 -0.07213526 -0.04640063 0.006110534 0.075426295 -0.123979546 -0.039586112 0.10270573
0.02944696 0.09998189 -0.04790435 -0.089149475 -0.09654951 -0.079511404 -0.106279254 0.070084095
0.038012013 -0.09048484 0.12962638 0.040262535 0.052630976 -0.059588328 0.09791136 -0.099757046
0.103085846 -0.07685035 0.060066745 -0.051161155 0.0918771 -0.11860602 -0.027574152 -0.038171932
-0.08456602 -0.06946535 -0.03968355 0.014663845 0.10038173 -0.023239389 0.13862132 -0.0672982
-0.07280582 -0.0073769093 -0.025602005 0.044920042 0.13067137 0.048421264 -0.11833708 -0.048317842
-0.028095394 -0.1287778 0.04372582 0.12344752 0.07023744 -0.0028003305 -0.010766596 -0.06622673
-0.015710995 0.12403177 -0.072707884 0.022625387 -0.10376389 -0.038673326 0.008189246 -0.106787175
0.03842403 -0.121441886 -0.05777119 0.09841485 0.13266088 -0.0110569 -0.10107976 -0.11611727
-0.034754597 -0.072168455 0.112417415 -0.100814894 0.08512625 0.02688831 -0.043013595 0.11527924
0.07869947 -0.0049462765 -0.095852286 -0.041623928 0.045598105 0.12253739 -0.04772377 -0.058772333
-0.13817586 0.08692378 0.13803093 0.0973656 -0.07880161 0.10131116 -0.007330278 0.029575117
0.052266628 -0.080705695 0.00018670688 0.088014245 -0.056630503 0.086923495 0.08297172 0.15306509
0.002649532 -0.04335482 -0.03731989 0.028205479 0.018210186 0.09334755 0.086635575 0.04946487
-0.06062327 0.00157537 0.074283786 -0.07653671 -0.018648218 0.02176372 -0.032581966 -0.04707223
0.017656595 0.0037055102 -0.021419503 -0.10403796 -0.009373131 0.052035674 0.02690686 -0.01744589
-0.06386564 0.08607013 0.08229114 0.016794737 -0.016158529 0.018621767 -0.0042496617 -0.052964576
-0.03656007 0.05141996 0.06406553 -0.031878993 0.14347373 0.18257497 -0.06279463 0.095065475
0.28218722 0.0038425715 -0.02352546 0.27395472 -0.07775628 0.20347834 -0.11968292 0.3474915
0.4090861 0.14332166 -0.22446379 -0.331377 0.5089626 0.13830686 0.069994435 0.11451222
-0.41832578 -4.4371247 2.2809458 0.97666633 1.3713833 1.2256085 0.6543983 0.18443531
0.64140445 0.36140087 -0.016734261 -0.5663573 0.31631103 0.2969473 0.3207434 0.12493333
-0.050796982 0.4836842 0.32260326 -0.57474905 -0.5820457 -0.56046116 -2.6549425 -1.2938484
1.3541827 -0.22813487 1.3501348 3.4117086 0.37986165 1.8308729 -0.7612608 -2.979785
2.304246 -1.1319261 0.1376492 -0.0705849 -0.0071508884 -0.09263048 -0.06274491 -0.12123872
00000000: 742d 933c 31fd 823b 1c2a a7bd f467 c2bc
00000010: 4a57 983d aa3c 63bd 365f 07bd 7893 b0bd
00000020: 4d52 ba3a 6765 5b3d d8b5 a0bd 4d4e b73c
00000030: 5ccb 693d 0bf5 8cbd f2a7 b53a 8fed 353c
00000040: eedc 15bb ed96 903d f86e 9bbd 0396 bfbb
00000050: 5f69 c0bd a950 9dbd 8bfa 8dbd 6dae a33d
00000060: 45fc 05be 4de7 93bd 1d7b 1dbe a839 22be
00000070: cbf0 edbd e977 5a3d 449b 17be 8c8b eebc
00000080: 7ee2 5ebd e4e7 1bbc ccf4 86bd eb32 fcbc
00000090: 033b 70bd 65ab dfbb bf54 f43c e88a 443c
000000a0: c805 bc3d 6e72 9f3d 6eb4 013d 75c1 823d
000000b0: df80 3b3d 53f1 f63c 7f61 e83c 1c52 18bd
000000c0: ad65 1abd 7a38 283d b054 523d c9af 023e
000000d0: 34d7 96bc 60f8 d4bc 7e8d c63d 00a9 953b
000000e0: bdf4 073e a7bb 93bd 960e 3ebd e03a c83b
000000f0: 1a79 9a3d fde8 fdbd 0c25 22bd 6257 d23d
00000100: c03a f13c 4ec3 cc3d 5a37 44bd 0094 b6bd
00000110: c0bb c5bd e0d6 a2bd f0a8 d9bd 4088 8f3d
00000120: 7cb2 1b3d 1e50 b9bd c7bc 043e 54ea 243d
00000130: 9493 573d e412 74bd c085 c83d 6c4d ccbd
00000140: ac1e d33d b763 9dbd 8c08 763d 5c8e 51bd
00000150: 102a bc3d b7e7 f2bd 30e3 e1bc 2c5a 1cbd
00000160: f330 adbd d943 8ebd 388b 22bd a040 703c
00000170: f094 cd3d 8860 bebc bff2 0d3e a4d3 89bd
00000180: 381b 95bd 00ba f1bb 4cbb d1bc 14fe 373d
00000190: b7ce 053e 6055 463d b65a f2bd eee8 45bd
000001a0: 5028 e6bc 54de 03be d819 333d 0ed2 fc3d
000001b0: a6d8 8f3d c085 37bb 6066 30bc e1a1 87bd
000001c0: 58b4 80bc 5e04 fe3d dfe7 94bd e058 b93c
000001d0: 2a82 d4bd ec67 1ebd 302c 063c 3cb3 dabd
000001e0: 8462 1d3d 86b6 f8bd 7ca1 6cbd ba8d c93d
000001f0: 41d8 073e 0028 35bc e802 cfbd e4ce edbd
00000200: d65a 0ebd 0ecd 93bd 1a3b e63d 0a78 cebd
00000210: ac56 ae3d e044 dc3c 062f 30bd 8617 ec3d
00000220: 302d a13d 6014 a2bb 344e c4bd da7d 2abd
00000230: 14c5 3a3d e2f4 fa3d 007a 43bd 42bb 70bd
00000240: f97d 0dbe 1805 b23d fb57 0d3e 9e67 c73d
00000250: bd62 a1bd 3a7c cf3d d432 f0bb 8447 f23c
00000260: 8815 563d 0749 a5bd bfc6 4339 d040 b43d
00000270: 63f5 67bd f204 b23d 14ed a93d 18bd 1c3e
00000280: c5a3 2d3b d394 31bd bedc 18bd 2d0f e73c
00000290: 872d 953c 002d bf3d fe6d b13d ad9b 4a3d
000002a0: 1b50 78bd a57c ce3a 1922 983d 47bf 9cbd
000002b0: 26c4 98bc d449 b23c ab74 05bd d0ce 40bd
000002c0: 90a4 903c 25d8 723b f477 afbc db11 d5bd
000002d0: c391 19bc 5c23 553d c66b dc3c afea 8ebc
000002e0: fdcb 82bd 8945 b03d 4288 a83d 1e95 893c
000002f0: e45e 84bc ad8c 983c bf40 8bbb 62f1 58bd
00000300: 03c0 15bd bc9d 523d ca34 833d 8c93 02bd
00000310: c7ea 123e eff4 3a3e 799a 80bd b0b1 c23d
00000320: d87a 903e a7d3 7b3b 77b8 c0bc cb43 8c3e
00000330: af3e 9fbd a05c 503e 521c f5bd 68ea b13e
00000340: bc73 d13e eac2 123e d6d9 65be 3faa a9be
00000350: 5f4b 023f 50a0 0d3e 3e59 8f3d 6285 ea3d
00000360: cc2e d6be edfc 8dc0 04fb 1140 ce06 7a3f
00000370: 7d89 af3f bde0 9c3f a686 273f 9cdc 3c3e
00000380: 1533 243f 8909 b93e 4a16 89bc cbfc 10bf
00000390: 85f3 a13e 7a09 983e 7b38 a43e 0cdd ff3d
000003a0: 7f10 50bd 75a5 f73e 412c a53e c122 13bf
000003b0: f200 15bf 627a 0fbf 94ea 29c0 d39c a5bf
000003c0: dc55 ad3f 309c 69be 38d1 ac3f 6f59 5a40
000003d0: 3a7d c23e 0b5a ea3f fde1 42bf ccb4 3ec0
000003e0: c478 1340 f4e2 90bf e9f3 0c3e d18e 90bd
000003f0: 0052 eabb 0db5 bdbd 6780 80bd 024c f8bd

network.0.bias f4 [32]
-0.09889742 -0.13041674 -0.07961142 -0.10489078 -0.03509093 -0.12889384 -0.14610183 0.7818252
-0.16526325 -0.14041358 -0.10383432 -0.00797149 0.90375954 -0.085481964 0.30971563 -0.115520895
0.035124738 1.2278471 -0.10477868 1.0317694 0.02900461 -0.12163164 0.060537055 -0.06680174
-0.1412768 -0.1243615 -0.1250561 -0.10625244 -0.13306208 -0.1346645 -0.11131472 -0.1460767
00000000: bb8a cabd f78b 05be 500b a3bd fad0 d6bd
00000010: 82bb 0fbd bffc 03be b89b 15be b225 483f
00000020: c53a 29be 94c8 0fbe 17a7 d4bd da9a 02bc
00000030: c95c 673f 2b11 afbd 0c93 9e3e 3896 ecbd
00000040: f5de 0f3d 182a 9d3f 3496 d6bd 0511 843f
00000050: 139b ed3c 021a f9bd b4f5 773d 5acf 88bd
00000060: deaa 10be 3eb1 febd b50e 00be e19a d9bd
00000070: 6d41 08be 7ee5 09be f9f8 e3bd 2195 15be

network.2.weight f4 [16, 32]
0.024447635 -0.13288152 -0.051118836 -0.08708512 0.24719945 0.027005717 0.25773937 0.7013432
-0.13946891 -0.0856413 0.22711627 -0.15302335 -1.6288737 0.5221336 -1.1047136 0.17951924
-0.19400625 0.9068019 0.14044745 -1.1153783 0.23840761 0.08941196 -0.38710767 0.17315426
0.15125985 0.13372745 0.22358246 1.106947 0.11557228 0.33985707 -0.048141822 0.16578384
-0.18767168 0.16464834 0.048127174 0.030430915 -3.3299882 0.017593652 -2.4426208 2.385754
-1.5943614 0.074467495 -2.3050582 -0.5763368 1.245925 -2.9983895 -2.019989 -2.804648
0.71809596 1.813585 -0.0046551377 -1.9434466 -0.6201582 -2.5532377 0.69929945 -2.3866544
-2.5955105 0.08819701 -1.7701637 -0.53951955 -2.5777497 -2.5757916 -0.12266885 0.085387215
0.115189105 -0.1712083 -0.08259212 -0.13333714 -4.0148597 0.16085674 -3.9183433 1.160294
-1.4102564 -0.0005864948 -2.5045543 -1.5369623 0.8389044 2.1916614 0.92010206 -0.57552165
0.29548526 0.73138034 -0.13277408 1.5250518 -0.66144323 2.8132937 0.8022694 0.96874046
-3.897251 -0.08557509 -0.0063515697 0.99393064 -3.4345734 -3.7337754 0.14149992 0.023802374
-0.17583227 -0.17668949 -0.0890278 0.06821264 1.6807094 -0.027536705 2.4902003 -0.60959643
-0.13255297 -0.02740477 0.051082425 3.6433225 0.31572154 1.6560576 -0.3471592 2.7120056
1.6224679 -0.17654578 0.029812947 -2.2708106 0.5219723 2.9169128 1.2099805 2.9703033
2.777012 -0.08517775 2.9082494 0.5809947 2.783444 2.6388936 0.028202683 -0.13146451
-0.0068241907 0.12604739 -0.08656874 -0.023650574 -0.018519174 -0.07661494 -0.10355216 -0.22875257
-0.043830503 0.017982557 -0.2864864 -0.040415853 -0.07230639 -0.2052587 -0.036463734 -0.11902166
-0.19891097 -0.1797792 -0.080540664 -0.021225313 0.009869031 -0.14019741 -0.2655943 -0.0012734162
0.03249025 0.12051086 0.07844426 -0.088681266 -0.069106415 -0.21651557 -0.17504005 0.010576906
0.029942026 0.10311605 0.042044446 0.028301423 0.7323516 -0.034175232 3.5851927 -0.7890412
-0.5269173 -0.068646766 -1.7996503 3.4086254 0.32634938 -1.6330259 1.1352501 1.5423641
1.5953771 2.1220372 -0.055405997 -0.3832033 -0.90926594 0.57803994 2.0451581 1.2780977
3.6956322 0.12534623 1.9982932 -0.36458078 3.8340247 3.268604 0.066410705 0.05627499
0.014237245 -0.04817517 -0.12930584 -0.11229471 1.8876538 0.17147897 0.012145871 0.23997097
0.33159202 -0.0066205114 -0.17105156 -1.1513668 0.81937844 0.9234331 -0.5878962 0.045399886
0.803947 -0.15804884 -0.056455135 -1.6752133 0.18561023 -0.47998983 0.87338215 0.2633443
0.0131452875 0.15629612 0.030375017 0.6600533 0.012106741 -0.10400389 0.116679445 0.08634519
-0.14904779 -0.10442379 -0.16053557 -0.053128295 -0.0022841971 -0.07494799 -0.16266847 -0.13938649
0.052953947 -0.012452498 -0.06391856 -0.0097083105 -0.12096882 -0.0999979 -0.08112084 -0.07973531
-0.16546777 -0.19023289 -0.06697769 -0.029929219 0.0713796 -0.0047846437 0.11836859 0.03455306
-0.14417301 -0.08843909 -0.04850419 -0.15270063 0.006954782 0.025103223 -0.13780361 -0.037206084
00000000: 6846 c83c 1812 08be fc61 51bd af59 b2bd
00000010: da21 7d3e 183b dd3c 6af6 833e 3a8b 333f
00000020: f0d0 0ebe b564 afbd 2b91 683e 27b2 1cbe
00000030: ef7e d0bf 8caa 053f 4167 8dbf e4d3 373e
00000040: 93a9 46be 2b24 683f 75d1 0f3e b7c4 8ebf
00000050: 2021 743e 9e1d b73d fa32 c6be 5a4f 313e
00000060: dde3 1a3e d9ef 083e cdf2 643e 70b0 8d3f
00000070: 29b1 ec3d bf01 ae3e 5c30 45bd 3dc3 293e
00000080: 012d 40be 9399 283e 0021 453d 414a f93c
00000090: 871e 55c0 9020 903c e653 1cc0 32b0 1840
000000a0: 0914 ccbf 6a82 983d 1386 13c0 cf8a 13bf
000000b0: 787a 9f3f 9de5 3fc0 8047 01c0 5a7f 33c0
000000c0: 23d5 373f 8e23 e83f 208a 98bb dcc2 f8bf
000000d0: b0c2 1ebf 3f68 23c0 4a05 333f f2be 18c0
000000e0: d81c 26c0 a2a0 b43d b994 e2bf f41d 0abf
000000f0: daf9 24c0 c5d9 24c0 ce39 fbbd 7edf ae3d
00000100: 44e8 eb3d 3b51 2fbe 0f26 a9bd 8889 08be
00000110: bb79 80c0 a1b7 243e 23c6 7ac0 8484 943f
00000120: 4883 b4bf 00bf 19ba 9e4a 20c0 2ebb c4bf
00000130: 70c2 563f 2e44 0c40 cf8b 6b3f 6355 13bf
00000140: d849 973e be3b 3b3f eef5 07be e634 c33f
00000150: 5854 29bf 010d 3440 8761 4d3f 60ff 773f
00000160: 8f6c 79c0 fe41 afbd d420 d0bb 3d72 7e3f
00000170: 0dd0 5bc0 2df6 6ec0 5be5 103e 32fd c23c
00000180: 600d 34be 17ee 34be 3554 b6bd 12b3 8b3d
00000190: 7c21 d73f a894 e1bc 715f 1f40 830e 1cbf
000001a0: f7bb 07be f87f e0bc ce3b 513d 322c 6940
000001b0: 41a6 a13e b2f9 d33f dabe b1be 8091 2d40
000001c0: 07ad cf3f 6bc8 34be 483a f43c f654 11c0
000001d0: fa9f 053f b3ae 3a40 a4e0 9a3f 7319 3e40
000001e0: 91ba 3140 ac71 aebd c220 3a40 12bc 143f
000001f0: f223 3240 a2e3 2840 5009 e73c a29e 06be
00000200: 769d dfbb 9112 013e f44a b1bd d9be c1bc
00000210: 86b5 97bc 4be8 9cbd 2813 d4bd 1d3e 6abe
00000220: 9d87 33bd 2850 933c 58ae 92be 188b 25bd
00000230: 5f15 94bd 562f 52be ff5a 15bd a1c1 f3bd
00000240: 51af 4bbe 0a18 38be 81f2 a4bd b5e0 adbc
00000250: b7b1 213c e98f 0fbe fafb 87be c2e8 a6ba
00000260: 7f14 053d 66ce f63d 62a7 a03d 869e b5bd
00000270: aa87 8dbd 42b6 5dbe b33d 33be c24a 2d3c
00000280: fb48 f53c 822e d33d cc36 2c3d 63d8 e73c
00000290: 657b 3b3f 54fb 0bbd cc73 6540 9bfe 49bf
000002a0: 0de4 06bf ad96 8cbd f15a e6bf eb26 5a40
000002b0: 4417 a73e fe06 d1bf e04f 913f 306c c53f
000002c0: 5135 cc3f 75cf 0740 66f1 62bd 3933 c4be
000002d0: a7c5 68bf 6dfa 133f dfe3 0240 b598 a33f
000002e0: 3d85 6c40 c35a 003e 12c8 ff3f 55aa babe
000002f0: a960 7540 cf30 5140 5602 883d 9b80 663d
00000300: 5543 693c 5453 45bd c068 04be c5fa e5bd
00000310: a49e f13f 2f98 2f3e 7aff 463c f3ba 753e
00000320: 6ec6 a93e e0f0 d8bb 2428 2fbe fd5f 93bf
00000330: c9c2 513f 1d66 6c3f 5e80 16bf 3bf5 393d
00000340: 78cf 4d3f 8ed7 21be 803d 67bd 646d d6bf
00000350: 9c10 3e3e 3ac1 f5be f995 5f3f 10d5 863e
00000360: 555f 573c 170c 203e 07d5 f83c 41f9 283f
00000370: 5a5b 463c feff d4bd a2f5 ee3d bfd5 b03d
00000380: fc9f 18be 24dc d5bd 7063 24be 0e9d 59bd
00000390: 78b2 15bb 557e 99bd 9092 26be 55bb 0ebe
000003a0: 3de6 583d 9005 4cbc bce7 82bd 9b0f 1fbc
000003b0: 80be f7bd b3cb ccbd af22 a6bd 444c a3bd
000003c0: 6270 29be 69cc 42be 992b 89bd 1f2e f5bc
000003d0: 782f 923d 80c8 9cbb 3b6b f23d 8287 0d3d
000003e0: 17a2 13be 8e1f b5bd 54ac 46bd 8e5d 1cbe
000003f0: f1e4 e33b 46a5 cd3c 641c 0dbe 6865 18bd

network.2.bias f4 [16]
0.9497995 1.9251822 0.44805938 -0.12702028 -0.01921518 -0.72351754 0.8725722 -0.11948738
3.3217645 2.4957306 -0.7778207 -0.48771626 0.90365183 -0.12976904 -0.1436432 -0.6924396
00000000: 0f26 733f 5f6c f63f 0a68 e53e 9b11 02be
00000010: 2769 9dbc 7238 39bf e460 5f3f cdb5 f4bd
00000020: ca97 5440 0dba 1f40 421f 47bf f2b5 f9be
00000030: ba55 673f 2de2 04be 3417 13be b943 31bf

network.4.weight f4 [5, 16]
-25.90025 4.3896933 5.3135138 -0.92041194 -0.057122465 -6.5787673 -15.809178 0.12218159
-5.261823 -3.8349361 -0.67279315 -3.4887402 1.1935201 0.23482576 -5.176563 -8.266194
-17.865728 0.1920079 -2.675653 -6.6940994 0.14703868 1.9034826 -11.788896 -0.19671516
-8.070053 -0.49123836 -0.68749595 5.7200675 2.8724465 -0.14205036 -8.833474 3.7328103
-10.214552 -3.769434 -0.11747033 -1.2092015 -0.101359 2.6108093 -4.575498 -0.13451779
3.9844763 -0.43411198 -14.0789995 2.185929 4.0497093 0.07519857 -5.5962725 1.8534427
-0.35824627 -1.4908684 -0.92318046 0.52918565 0.24304661 0.8052832 1.1493435 -0.03916176
2.4050846 1.4216517 -2.9009683 -0.33814266 1.0759343 0.08341026 1.0487747 1.3095552
5.1037946 -0.17440236 -1.3670324 2.551495 0.04338704 -0.4104793 4.6108594 -0.064436965
0.5852821 0.9966015 3.6266422 -1.7563034 -0.28064135 -0.23358254 2.3887925 1.0097023
00000000: b633 cfc1 5e78 8c40 4e08 aa40 1ea0 6bbf
00000010: 3ff9 69bd 4385 d2c0 65f2 7cc1 573a fa3d
00000020: db60 a8c0 986f 75c0 2c3c 2cbf 8547 5fc0
00000030: 44c5 983f 2a76 703e 67a6 a5c0 5542 04c1
00000040: 03ed 8ec1 b89d 443e e63d 2bc0 1036 d6c0
00000050: 4f91 163e 51a5 f33f 519f 3cc1 b36f 49be
00000060: f01e 01c1 9883 fbbe bcff 2fbf cb0a b740
00000070: 2ad6 3740 a675 11be e955 0dc1 5de6 6e40
00000080: ce6e 23c1 683e 71c0 4994 f0bd 1dc7 9abf
00000090: 4f95 cfbd 8017 2740 7b6a 92c0 08bf 09be
000000a0: a901 7f40 ed43 debe 9543 61c1 43e6 0b40
000000b0: 3897 8140 b501 9a3d aa14 b3c0 9c3d ed3f
000000c0: 0e6c b7be c7d4 bebf 8e55 6cbf b678 073f
000000d0: 36e1 783e 0a27 4e3f b01d 933f 1568 20bd
000000e0: e8ec 1940 aff8 b53f 77a9 39c0 0921 adbe
000000f0: 37b8 893f 00d3 aa3d 403e 863f 819f a73f
00000100: 4952 a340 8896 32be ebfa aebf b24b 2340
00000110: 9cb6 313d 582a d2be 298c 9340 87f7 83bd
00000120: 0cd5 153f 4721 7f3f e81a 6840 8dce e0bf
00000130: 39b0 8fbe 4330 6fbe fae1 1840 ed3d 813f

network.4.bias f4 [5]
2.0484402 3.4079266 -3.9560077 -2.467967 2.4888082
00000000: a519 0340 781b 5a40 3b2f 7dc0 2cf3 1dc0
00000010: a248 1f40
