models/photon_count_model_rms003_03.pth (torch, 11994 bytes, 6 tensors)

network.0.weight f4 [32, 50]
-0.035269443 0.09384568 -0.076614544 -0.066898756 -0.18408296 -0.1594725 -0.07039232 0.07754842
-0.13063806 0.14150725 -0.13830832 -0.44324777 0.033165038 -0.19410574 -0.064170904 0.15307789
-0.029055247 -1.3375328 0.78252274 -0.027545605 -1.002076 -3.7474961 2.9564831 1.3270805
1.8700098 1.6864535 0.24259491 0.5188258 0.4433918 0.3489589 0.47881448 -0.42060816
0.67209035 0.57473963 -0.2852182 -0.9221633 -0.36187693 -0.14752235 -0.44178152 -0.35301927
-0.68607914 -0.47191676 -0.9458572 -0.50329065 -0.16436148 0.004797326 0.018273432 0.3436373
0.11358691 0.011524509 0.114640824 -0.19455625 -0.15552866 -0.102343045 -0.71162754 -0.04952209
-0.47684747 0.13029726 -0.033199325 -0.32684353 0.1862439 0.06702217 0.4489767 0.005058357
0.2672107 0.07161103 0.094767794 -3.1791303 -3.9998367 2.4961338 1.6854775 3.435161
1.4489341 1.9390819 0.34379384 0.313851 -0.70550275 0.85094637 -2.147279 -0.6602763
0.87684876 -2.4262502 0.24328491 -0.49312577 -0.069806516 0.9475957 -2.3635938 1.0419235
-1.3392736 -0.61182916 0.8439936 -2.5479448 -0.26702246 -1.4825397 -0.6759376 0.7489532
-0.5557863 0.35112223 -0.62071747 -0.807039 -0.09298163 0.07617409 0.08353958 -0.29683015
-0.081242226 -0.038274564 0.06415304 -0.26957038 0.44141316 -0.42421415 0.46401122 -0.23598212
0.30946955 -0.24041657 2.2429488 -2.0873318 -1.4729313 0.22879891 0.8164019 -0.81107146
0.5584887 0.71361744 -2.0470006 2.8715386 0.23635451 2.5450826 -1.4554791 1.8558105
-2.0816731 -2.3521953 2.412681 -3.908911 4.0403996 0.82987946 -0.27056 3.066206
-3.582843 1.6742405 -0.043383308 -1.0445167 2.1832612 -3.7605093 0.37715253 -1.8844417
-2.1257794 1.3778453 -1.6226078 1.7302619 0.3983914 -0.8604035 0.10744646 -0.17457989
0.035200935 -0.072182424 0.21125694 -0.23558536 -0.034148447 -0.17819774 0.12864017 0.0361527
-0.031115117 0.4252362 0.011014341 -0.046354532 0.48518997 0.25845584 -0.26951492 -0.28988597
-0.2924565 0.15333006 0.45211354 0.44326538 0.15604542 -0.02515879 -0.4635888 -2.1739538
0.1025247 -0.17495021 -1.1173636 -2.9152124 1.777015 1.7724175 2.2571697 3.0231762
-0.13150017 0.06714778 -1.734441 -1.2653848 1.3263067 0.24453989 1.8081361 1.6812687
-1.4914804 -1.823018 -1.1723293 -1.1538656 1.5134943 0.21047027 0.9372356 0.27991
-0.17406468 -0.017017063 -0.18350042 -0.011000969 0.01473129 0.30052283 -0.04518513 -0.18303235
-0.032183405 -0.030884592 0.2594183 0.17739001 -0.010093536 0.09735313 0.00026977473 -0.26765177
-0.43023622 0.21515809 0.18180867 -0.3200743 0.34470153 1.5187863 -1.7782936 0.6389857
1.383904 2.2795024 -2.3024204 -0.033013012 -1.1949233 -1.1439713 2.8182204 -2.3690822
-0.096958555 0.22827893 -2.2575936 1.4946768 -0.7328847 0.4893178 1.8570755 -0.35488403
0.025140312 -0.9271028 0.16968311 0.99620867 0.52212244 0.63389426 -0.36174744 1.0489694
-0.08404516 0.05711985 -0.03818411 0.34821647 0.21524929 -0.25451395 0.057120867 0.22961032
00000000: b176 10bd 2a32 c03d 16e8 9cbd 3702 89bd
00000010: 3e80 3cbe c24c 23be d929 90bd b5d1 9e3d
00000020: fcc5 05be 47e7 103e b2a0 0dbe 5ff1 e2be
00000030: 10d8 073d a8c3 46be 096c 83bd 73c0 1c3e
00000040: 4505 eebc 4634 abbf 6953 483f 52a7 e1bc
00000050: 0744 80bf fad6 6fc0 0537 3d40 c6dd a93f
00000060: 7b5c ef3f b5dd d73f cd6a 783e c5d1 043f
00000070: 4004 e33e beaa b23e 2c27 f53e f459 d7be
00000080: 1d0e 2c3f 2322 133f 1f08 92be e512 6cbf
00000090: ef47 b9be 1910 17be 3031 e2be f1be b4be
000000a0: e2a2 2fbf 139f f1be b323 72bf a8d7 00bf
000000b0: 604e 28be e332 9d3b 2ab2 953c 3af1 af3e
000000c0: 41a0 e83d 4bd1 3c3c cfc8 ea3d c139 47be
000000d0: e842 1fbe 3b99 d1bd 392d 36bf add7 4abd
000000e0: 5a25 f4be a56c 053e 04fc 07bd 0958 a7be
000000f0: b9b6 3e3e eb42 893d 46e0 e53e 93c0 a53b
00000100: d7cf 883e cea8 923d 9e15 c23d df76 4bc0
00000110: 53fd 7fc0 a8c0 1f40 babd d73f aed9 5b40
00000120: ac76 b93f d633 f83f bf05 b03e 14b1 a03e
00000130: d49b 34bf 9fd7 593f 056d 09c0 de07 29bf
00000140: 2979 603f af47 1bc0 ae1f 793e fb7a fcbe
00000150: b8f6 8ebd a295 723f 1f45 17c0 c05d 853f
00000160: 516d abbf d6a0 1cbf f70f 583f 8711 23c0
00000170: 2bb7 88be dcc3 bdbf 3f0a 2dbf 66bb 3f3f
00000180: 0348 0ebf 4bc6 b33e 57e7 1ebf 1c9a 4ebf
00000190: 276d bebd 2901 9c3d cd16 ab3d 1ffa 97be
000001a0: 5362 a6bd cac5 1cbd ab62 833d 2105 8abe
000001b0: e800 e23e 9932 d9be e192 ed3e 4ca5 71be
000001c0: cb72 9e3e c32f 76be 798c 0f40 d896 05c0
000001d0: 0389 bcbf 434a 6a3e b7ff 503f 61a2 4fbf
000001e0: 1ef9 0e3f a2af 363f 0f02 03c0 4ac7 3740
000001f0: eb06 723e a2e2 2240 244d babf 338b ed3f
00000200: 223a 05c0 5e8a 16c0 5e69 1a40 992b 7ac0
00000210: f44a 8140 fb72 543f d786 8abe b83c 4440
00000220: 4d4d 65c0 834d d63f b2b2 31bd b9b2 85bf
00000230: 8dba 0b40 2fac 70c0 231a c13e 6335 f1bf
00000240: c50c 08c0 3c5d b03f 9db1 cfbf 3979 dd3f
00000250: f5f9 cb3e 6743 5cbf e40c dc3d 12c5 32be
00000260: db2e 103d 61d4 93bd bd53 583e 4a3d 71be
00000270: 3edf 0bbd 7879 36be 40ba 033e db14 143d
00000280: 21e5 febc 8fb8 d93e 7f75 343c 40de 3dbd
00000290: d26a f83e 5354 843e dcfd 89be ef6b 94be
000002a0: dcbc 95be 8e02 1d3e 6d7b e73e aef3 e23e
000002b0: 5fca 1f3e cf19 cebc 835b edbe 0f22 0bc0
000002c0: 78f8 d13d 2626 33be c505 8fbf d792 3ac0
000002d0: 3a75 e33f 94de e23f 7875 1040 b87b 4140
000002e0: fba7 06be c684 893d 2a02 debf 21f8 a1bf
000002f0: 6bc4 a93f aa68 7a3e 0171 e73f d033 d73f
00000300: d4e8 bebf a758 e9bf e30e 96bf deb1 93bf
00000310: 2eba c13f 8585 573e acee 6f3f 5d50 8f3e
00000320: 033e 32be 5e67 8bbc 89e7 3bbe 693d 34bc
00000330: 825b 713c 21de 993e 0b14 39bd d56c 3bbe
00000340: bfd2 03bd af01 fdbc 7ad2 843e baa5 353e
00000350: 5c5f 25bc 1461 c73d 8d70 8d39 a709 89be
00000360: ec47 dcbe 6752 5c3e 0d2c 3a3e c7e0 a3be
00000370: b87c b03e 9767 c23f 209f e3bf 9194 233f
00000380: c423 b13f 5ee3 1140 db5a 13c0 a738 07bd
00000390: 3ff3 98bf a76d 92bf b95d 3440 0b9f 17c0
000003a0: 3592 c6bd f4c1 693e 6a7c 10c0 9251 bf3f
000003b0: 559e 3bbf dd87 fa3e a6b4 ed3f 5cb3 b5be
000003c0: 0ef3 cd3c 9c56 6dbf 69c1 2d3e 8807 7f3f
000003d0: d1a9 053f e546 223f f636 b9be a144 863f
000003e0: de1f acbd 81f6 693d f166 1cbd 6e49 b23e
000003f0: 4f6a 5c3e a74f 82be 92f7 693d f81e 6b3e

network.0.bias f4 [32]
-0.108426064 1.2327719 1.2283831 -0.08336081 0.08471741 0.06412876 0.45490897 -0.015451458
-0.112911366 -0.12886646 1.1852785 -0.20944457 -0.12621664 -0.103680134 -0.12377297 -0.11945951
-0.08178114 -0.21575776 0.54730725 0.026534393 -0.1398534 -0.08397932 -0.010630328 1.9332263
-0.13613035 -0.07116167 -0.11462806 -0.15796117 -0.1310073 -0.10648458 1.1261017 0.010996048
00000000: 7c0e debd 78cb 9d3f a83b 9d3f 13b9 aabd
00000010: 5280 ad3d f055 833d d4e9 e83e 1d28 7dbc
00000020: 133e e7bd 92f5 03be 35b7 973f a378 56be
00000030: ef3e 01be 4056 d4bd af7c fdbd 30a7 f4bd
00000040: df7c a7bd 9aef 5cbe 541c 0c3f a85e d93c
00000050: bb35 0fbe 5afd abbd d42a 2ebc f673 f73f
00000060: c165 0bbe 36bd 91bd 1ec2 eabd 93c0 21be
00000070: c726 06be 9614 dabd 1a24 903f c528 343c

network.2.weight f4 [16, 32]
1.3301344 -1.5074862 -1.0207454 2.2706888 1.9807009 1.3826318 0.9200003 1.862034
1.3224558 1.978338 -0.7599528 1.038835 1.0347998 0.25483856 0.10596327 -0.11424735
1.1374159 1.7510248 -0.32789916 1.9057744 1.0215657 -0.016025707 -0.36823127 0.16178364
1.4391545 2.3272948 1.4865131 1.0972857 0.12400885 0.15718184 0.5220301 2.196293
1.2826067 1.8873396 -0.62469125 -0.7271748 -0.026677582 0.518322 0.5841541 -2.0578158
1.8541721 -1.6490647 -0.41826037 1.4176618 1.3179898 0.101352066 0.12585473 -0.17472656
0.55258983 0.39230558 1.4280387 0.81230676 1.1413805 0.03942646 1.8709968 -1.003989
0.58433443 0.22466101 1.0828353 1.42821 -0.045281 0.09316425 1.0470031 0.8187445
-0.92649835 -0.25490144 -2.251274 2.3674436 3.111751 3.0542629 -0.8759389 1.7174212
-0.99659735 2.9390152 0.39487696 -0.8087097 -0.6525084 -0.12378003 -0.049077183 0.113291845
-1.101711 -1.6907338 0.7793601 1.7891866 -0.6897371 0.051008895 0.10660078 1.4171095
-0.5894786 2.1674974 -0.8551159 -0.76118493 -0.07157622 -0.10729361 -0.067793496 0.90940917
2.603996 3.0667088 -2.1882303 0.9512129 1.0178441 0.38959473 2.1568568 0.98371506
2.357502 1.3032299 -1.1463797 1.8990682 2.2093518 -0.08390097 -0.10443789 -0.054456405
1.0949556 0.45520502 1.9890921 1.2037781 2.3946402 0.03153847 2.6590264 -0.74614334
1.1179845 0.20426258 1.3292894 2.0217404 -0.022591636 -0.045747474 0.5883035 0.6667901
1.2579904 -0.39212963 0.0062749037 0.19700581 0.5424618 0.9092193 1.0550734 0.43989086
1.1521593 0.5230216 -0.44529155 1.0599884 1.0507549 -0.15718037 -0.03772199 0.15382512
1.460342 1.9312056 -0.877434 -1.2849832 1.0040252 0.065006346 -0.49095282 -0.33689043
1.0393574 0.83855605 1.2514622 0.9058875 -0.12056714 0.17386319 -1.3138555 -1.0701492
0.029124914 -0.26746422 -0.17240791 -0.08838632 -0.026962982 -0.07371595 0.0077273697 -0.17676388
-0.12543699 0.056470543 -0.016785145 0.015605038 -0.16492067 0.088179305 0.051711902 -0.08199172
-0.055362757 -0.23805046 0.01766867 -0.17594185 -0.09436808 -0.14171281 -0.05358485 -0.00997659
-0.0891383 -0.073726304 -0.05198154 -0.03262204 0.05045408 -0.0055943877 -0.1775825 -0.22057709
2.4376895 -1.7269008 -0.085265055 1.3040817 0.2296182 -0.45709258 2.200936 1.4415057
1.8092017 -1.0166452 -1.5619812 1.3894216 1.9503423 -0.017276827 -0.07948075 -0.05819938
1.9339037 2.6697612 -0.8561746 2.5761106 2.1648104 0.035436988 0.47209057 -0.52959245
1.9352148 -1.9002801 1.7595536 1.720742 -0.020595785 0.048398554 1.7721854 2.2288978
-0.045778148 -0.031757552 -0.23518251 -0.116076075 -0.07039694 0.08769129 -0.00014390757 -0.1714531
-0.17737886 0.032705512 0.040224962 0.00927308 0.0818783 -0.014139757 -0.1560223 0.042758614
0.059958182 0.029336868 -0.2058711 0.014363963 0.025012609 0.13641499 -0.1501472 -0.211728
-0.10670861 -0.1767544 -0.036779508 -0.11394005 0.158491 -0.052281097 -0.13785826 -0.20930684
00000000: d841 aa3f 4ff5 c0bf c9a7 82bf f752 1140
00000010: 9b87 fd3f 14fa b03f 2485 6b3f 2157 ee3f
00000020: 3b46 a93f 2e3a fd3f 448c 42bf 8cf8 843f
00000030: 5274 843f 337a 823e 4503 d93d 84fa e9bd
00000040: d896 913f 9521 e03f 66e2 a7be 6af0 f33f
00000050: aac2 823f 5848 83bc cf88 bcbe 9caa 253e
00000060: 3736 b83f 66f2 1440 1046 be3f dc73 8c3f
00000070: 5af8 fd3d 47f4 203e c4a3 053f 1190 0c40
00000080: 752c a43f 5894 f13f c4eb 1fbf 2128 3abf
00000090: f28a dabc c0b0 043f 208b 153f 41b3 03c0
000000a0: 8355 ed3f 8d14 d3bf 3926 d6be f175 b53f
000000b0: e4b3 a83f ac91 cf3d 10e0 003e 85eb 32be
000000c0: 8776 0d3f 47dc c83e f9c9 b63f 56f3 4f3f
000000d0: c218 923f a47d 213d d37c ef3f b682 80bf
000000e0: f196 153f 890d 663e 599a 8a3f 96cf b63f
000000f0: 9278 39bd e6cc be3d 3304 863f 3d99 513f
00000100: ff2e 6dbf 7182 82be e014 10c0 3284 1740
00000110: ee26 4740 0b79 4340 883d 60bf 75d4 db3f
00000120: 0121 7fbf d318 3c40 502d ca3e 9907 4fbf
00000130: ca0a 27bf 6280 fdbd 2805 49bd 8e05 e83d
00000140: de04 8dbf f769 d8bf 2584 473f 1104 e53f
00000150: 9c92 30bf b4ee 503d 8251 da3d d863 b53f
00000160: 12e8 16bf 47b8 0a40 e0e8 5abf 04dd 42bf
00000170: 8e96 92bd c1bc dbbd 51d7 8abd 0acf 683f
00000180: dfa7 2640 f544 4440 f70b 0cc0 b082 733f
00000190: b748 823f f678 c73e f109 0a40 c0d4 7b3f
000001a0: 50e1 1640 3dd0 a63f 92bc 92bf ab14 f33f
000001b0: 0566 0d40 46d4 abbd 88e3 d5bd ae0d 5fbd
000001c0: 8127 8c3f a210 e93e 929a fe3f 6715 9a3f
000001d0: c941 1940 7c2e 013d 7d2d 2a40 4003 3fbf
000001e0: 1e1a 8f3f 362a 513e 2826 aa3f 3264 0140
000001f0: 1812 b9bc b461 3bbd 0f9b 163f c2b2 2a3f
00000200: d405 a13f 37c5 c8be b59d cd3b e4bb 493e
00000210: c7de 0a3f 99c2 683f a50c 873f 6039 e13e
00000220: f579 933f bee4 053f 41fd e3be b3ad 873f
00000230: 237f 863f e4f3 20be 6082 1abd 5584 1d3e
00000240: 7dec ba3f bf31 f73f 849f 60bf 547a a4bf
00000250: e683 803f 0c22 853d 2b5e fbbe e77c acbe
00000260: aa09 853f 9cab 563f ea2f a03f 3ee8 673f
00000270: e8eb f6bd 3109 323e 6b2c a8bf a6fa 88bf
00000280: 5f97 ee3c 12f1 88be b38b 30be e303 b5bd
00000290: 79e1 dcbc 63f8 96bd e035 fd3b 9701 35be
000002a0: 8e72 00be a84d 673d 0081 89bc 46ac 7f3c
000002b0: f7e0 28be 5a97 b43d dccf 533d 46eb a7bd
000002c0: 0fc4 62bd 80c3 73be e3bd 903c 1a2a 34be
000002d0: 0d44 c1bd 2a1d 11be ca7b 5bbd da74 23bc
000002e0: 248e b6bd d1fd 96bd 98ea 54bd b09e 05bd
000002f0: f0a8 4e3d 2051 b7bb 30d8 35be f6de 61be
00000300: 1b03 1c40 160b ddbf 729f aebd 26ec a63f
00000310: 0921 6b3e 0a08 eabe 23dc 0c40 4283 b83f
00000320: ec93 e73f 6e21 82bf 00ef c7bf 91d8 b13f
00000330: d1a4 f93f 2288 8dbc cec6 a2bd 7962 6ebd
00000340: 288a f73f 5edd 2a40 422e 5bbf ffde 2440
00000350: 418c 0a40 6026 113d dbb5 f13e 5f93 07bf
00000360: 1eb5 f73f 613c f3bf 0d39 e13f 4641 dc3f
00000370: 7eb8 a8bc 903d 463d f9d6 e23f 43a6 0e40
00000380: de81 3bbd 3514 02bd afd3 70be 4bb9 edbd
00000390: 452c 90bd 7e97 b33d e5e5 16b9 6791 2fbe
000003a0: cea2 35be 37f6 053d eec2 243d 1eee 173c
000003b0: cfaf a73d 70aa 67bc 4fc4 1fbe a823 2f3d
000003c0: b696 753d df53 f03c e0cf 52be d456 6b3c
000003d0: 3ee7 cc3c 5fb0 0b3e 30c0 19be 3acf 58be
000003e0: 0b8a dabd 1bff 34be 1ca6 16bd 6759 e9bd
000003f0: 774b 223e b424 56bd b72a 0dbe 8854 56be

network.2.bias f4 [16]
0.28127447 1.2784488 -0.6801317 -1.9232558 1.5314457 -0.19575757 1.0357528 -0.19038965
0.2355112 1.1612953 -0.2337156 -0.21342677 0.32660204 -0.24412443 -0.1705746 0.021843743
00000000: 3503 903e 36a4 a33f 1c1d 2ebf 3f2d f6bf
00000010: 6a06 c43f ac74 48be 8c93 843f 81f5 42be
00000020: d929 713e 53a5 943f 2453 6fbe 8c8c 5abe
00000030: 6238 a73e c1fb 79be 1cab 2ebe a6f1 b23c

network.4.weight f4 [5, 16]
-24.289745 -2.880074 -2.6868625 -5.0090494 -0.7080442 0.10846195 -3.6826172 -0.18059903
-4.7790155 -13.732056 0.097772524 -0.052259486 2.7641397 0.024466604 0.15201937 0.20890306
-3.3317668 0.6724599 -4.346808 4.373834 -4.1400757 -0.18349123 -2.9655495 -0.07647495
-5.009991 -11.943429 0.1922036 0.14126308 -0.3781409 -0.15228538 -0.025696076 0.006760472
-1.9682908 2.246353 5.6540513 1.0456108 -3.9899793 -0.08486159 1.2735574 0.23687729
-1.355329 -5.685061 -0.034724765 -0.22675811 -3.1670754 -0.18909487 0.0964322 0.03309917
0.796163 0.8142839 3.022008 1.0223242 1.0388497 -0.2005004 1.6347228 -0.03545833
0.93091995 -0.20027228 0.17277259 0.034343805 -1.5354854 0.03570766 -0.24135262 -0.121487975
2.7836008 -0.4794185 0.14994015 1.2348409 2.5248132 0.07505055 1.5140597 -0.1475097
2.5745459 3.1051567 -0.02702642 -0.20501064 0.04356114 -0.0578096 -0.17461169 -0.04335915
00000000: 6651 c2c1 2253 38c0 8ef5 2bc0 224a a0c0
00000010: 6242 35bf 4d21 de3d 00b0 6bc0 f4ee 38be
00000020: b2ed 98c0 80b6 5bc1 f63c c83d 0b0e 56bd
00000030: aae7 3040 306e c83c f7aa 1b3e afea 553e
00000040: ab3b 55c0 5526 2c3f 0d19 8bc0 73f6 8b40
00000050: 807b 84c0 20e5 3bbe 90cb 3dc0 e69e 9cbd
00000060: d951 a0c0 4918 3fc1 05d1 443e 45a7 103e
00000070: af9b c1be b3f0 1bbe 9480 d2bc f386 dd3b
00000080: f4f0 fbbf 3fc4 0f40 fded b440 93d6 853f
00000090: d25b 7fc0 eacb adbd ee03 a33f f68f 723e
000000a0: 6c7b adbf 05ec b5c0 8e3b 0ebd 4733 68be
000000b0: 5db1 4ac0 16a2 41be 3f7e c53d ff92 073d
000000c0: 57d1 4b3f e974 503f 9468 4140 85db 823f
000000d0: 07f9 843f fa4f 4dbe 993e d13f c13c 11bd
000000e0: c550 6e3f 2d14 4dbe 4ceb 303e 17ac 0c3d
000000f0: c98a c4bf 3242 123d 2425 77be b0ce f8bd
00000100: 8426 3240 5776 f5be e989 193e 440f 9e3f
00000110: 8a96 2140 1ab4 993d b5cc c13f c80c 17be
00000120: 5cc5 2440 e3ba 4640 8366 ddbc 4fee 51be
00000130: 2a6d 323d c2c9 6cbd 68cd 32be 5d99 31bd

network.4.bias f4 [5]
4.37638 0.588012 0.976964 -0.2270243 -1.5027275
00000000: 4e0b 8c40 f487 163f 501a 7a3f 0f79 68be
00000010: 6059 c0bf
